Credit-card-fraud-detector/credit_card_model.pth (torch_old, 7980 bytes, 8 tensors)

encoder.0.weight f8 [14, 29]
00000000: bc9f cb0d 64d3 a13f a7c9 9e1d 3792 a5bf
00000010: 9a83 b348 87cf dd3f 2111 677b 5f99 91bf
00000020: acc8 4a92 ac51 853f 48c5 625b d5d5 b23f
00000030: fe15 79c8 37c2 a5bf ae3c 01f4 e3c6 9f3f
00000040: d0e0 33c1 da90 b03f 4803 0565 05c9 a2bf
00000050: 174b 0c06 9fde a0bf 7b63 8ed4 a64f 7d3f
00000060: 5a79 08cf abdd 65bf 6bf9 ad75 714a 843f
00000070: c7fd 01ed f7e8 a33f ea42 98b3 8f64 86bf
00000080: 17ee 353e 0228 a83f 4b05 90cb 4ca7 53bf
00000090: ba2e dea6 acc1 73bf 0834 9aae 00cb 933f
000000a0: 6b47 e8d4 ba68 a5bf b3ea c166 b1c9 76bf
000000b0: 07c7 8b0a da5a 963f c7a7 07c7 c392 a03f
000000c0: 0d3d 76ee e238 b03f 4465 9e62 ad6b 7cbf
000000d0: 7e0d a1ac 95e5 9ebf d669 eced f92e a13f
000000e0: fdb7 792e 5ce3 a3bf b0ab b257 4c13 a63f
000000f0: 7e64 2fba 04fc 8abf c9db 95ee 707d a9bf
00000100: febe e38e beaf 4c3f b258 b556 0540 613f
00000110: eb90 b231 ba6c 903f 409d 80c0 f5ca b6bf
00000120: 6fcf 611b 20a3 95bf 6cae 2059 35e8 86bf
00000130: 83d3 1eac 1833 a8bf 8ad1 4513 bc7e 86bf
00000140: 2c51 fd54 3f00 a9bf e423 855c cb35 8ebf
00000150: 5e82 9760 c818 7bbf f7ee 6ad7 f2ce 863f
00000160: 627b a471 4fa6 a93f 250c 3346 e6d3 d03f
00000170: 8f9c eae0 1465 b93f dee1 3a40 6d69 99bf
00000180: b3e6 c649 1406 c23f 969c bde8 c92c a1bf
00000190: 4f06 3ae9 06bf 83bf 036f 99c9 1236 b03f
000001a0: 060a b56c 0f1e 933f c7ce a919 1142 a43f
000001b0: 6abe b203 ecab 933f a1ec dd4c ce4d a2bf
000001c0: a7a8 91d3 4f6c a33f c0a6 eff4 3bad bb3f
000001d0: acc7 2e6e 2214 e13f e77e 5abc 3918 cbbf
000001e0: 16cd d86a 2450 c6bf d0bf 7f90 553c c83f
000001f0: 7d96 0851 4e23 a03f 7289 ae67 b3fc c0bf
00000200: 5ae2 2103 be81 cdbf d9b6 a814 0ec8 ca3f
00000210: d3dc 329c c129 c43f a018 6703 b706 aa3f
00000220: 869f 9fda 984f a73f 94f8 7294 4e54 c63f
00000230: 51e0 96bd dda9 a43f d57c 4ea9 6471 a53f
00000240: 23e1 3e19 6f9f 9d3f 0a5a 9622 4a40 bc3f
00000250: ccb5 246f fe31 acbf 7f75 a12b 8e04 b8bf
00000260: 432d 9b35 257b c3bf f2be f325 baa8 bebf
00000270: a998 b094 0862 c8bf 1687 46ec 5788 c3bf
00000280: ef9d dcb9 2858 b73f 7c31 abb9 4975 a13f
00000290: 3f32 b3d3 4252 e83f 5aaa aa25 3408 b53f
000002a0: 783e 820e 8a8a ad3f 43f0 26ab c893 783f
000002b0: 5c90 1e2f 5027 373f f1d9 af46 cce7 b2bf
000002c0: 222c f54b 5ff2 b03f 4234 8c73 fc4b 823f
000002d0: 6afa 5bdb a0b9 6fbf 81b9 a904 7ab0 a23f
000002e0: 5676 be29 0a24 83bf 9d3b 341a bd04 c43f
000002f0: 99a2 ab33 7bb7 c4bf 620f 18ce 9dbf 7e3f
00000300: 6e62 0cd0 8844 b7bf ee87 b7c0 6bc7 693f
00000310: fd0e 39ac 2321 a5bf 613d 04aa 6a29 a23f
00000320: 3138 8d4c a980 c5bf 7d3a 963c 0bf3 e6bf
00000330: 3f43 fb1b dc61 d1bf 0fec 2e44 0fcc ccbf
00000340: 810e d73a 2027 73bf 7eeb 0f36 f116 d4bf
00000350: c1fd 2e04 223d b93f 832a d781 c88a d1bf
00000360: dee0 fecf 7c97 bb3f 267e cb75 3ea7 623f
00000370: b278 ed72 d81d 93bf fcc9 458f b0b2 acbf
00000380: 70d6 8119 9107 b6bf cc82 3b16 c8ed 963f
00000390: 57c8 196c d0ee 8abf 6c50 a600 e6ac e03f
000003a0: e857 3e23 1e0c 9abf bd82 7b38 2ef1 7b3f
000003b0: 18f9 e6b9 a5ea 82bf 09e2 ea2a 074a 74bf
000003c0: 1ffc 196a 1885 d0bf 8037 4e26 377e d5be
000003d0: 0e6d 3fcd 8171 a1bf 2ca0 29c3 f3fc 6fbf
000003e0: 63b8 2468 c053 a03f 9b09 47c7 e416 8abf
000003f0: a5b7 b26a dcac 6ebf 5697 6db0 c4d3 5c3f
00000400: 5f61 deaf 4951 8abf dcdf d440 0bb1 adbf
00000410: f2db 5560 a23b 75bf 8f57 4a1c a5dc 68bf
00000420: 3f58 b3cd e33a 933f 906d 5311 e859 553f
00000430: 879f 0e92 f649 9abf 8fd5 570d c597 a93f
00000440: 6288 7ed3 c24b 8c3f 7cc6 8e0c 3833 9ebf
00000450: c3be e428 96f8 60bf 0322 943d 978d 8d3f
00000460: 99d2 7860 1e06 9a3f 7910 9b35 73a8 90bf
00000470: 41f2 3e7c e49a 873f 2512 a345 1f9b 823f
00000480: b8cc a2c0 c56e a03f 5804 6fb8 5b3f b6bf
00000490: cfe9 7141 1bec 783f 9254 b8a3 b51f b3bf
000004a0: fb05 bd78 6ecd 8f3f 1e5f 031f 4356 8ebf
000004b0: b15f 428a 538a 9d3f 67d1 781a 29cd b1bf
000004c0: 89c7 cfdb aed4 c13f 78d5 7204 9bd2 b03f
000004d0: e62b 5cd8 d384 ab3f 748c 8b3b 27a7 c23f
000004e0: 7a68 4a00 57b2 82bf bfa9 ee32 eb60 ebbf
000004f0: 0052 2f5b 84de b13f 2881 b65b f835 aebf
00000500: 40af f328 cd99 a13f b59c 262c 2d8b b2bf
00000510: fb3a 7804 07f4 95bf a88a 5b2c 9031 b4bf
00000520: ad6d 33d0 7558 b33f 6e85 0da4 509b d7bf
00000530: 223a a941 d0b1 b03f 887e 2434 f98c b3bf
00000540: 97fd 649c 116f a1bf b9a7 0326 53fc b33f
00000550: c5a7 ce7f 8d2c aebf ad7a a9fb 43a0 b6bf
00000560: 8eff 30cf 370e b5bf a92a 4fd0 f17c b83f
00000570: debb 7f4e ea9f 7e3f 4ab6 0692 ff58 903f
00000580: d897 fba1 62fb 94bf 5fd5 3d15 73b3 e03f
00000590: b1a0 67dc 97f1 a03f 52b5 2393 3f47 a5bf
000005a0: 313a 8398 efdc 733f e5b5 cf98 ed17 ab3f
000005b0: f3b4 8b9a 1c02 3b3f 0610 53de c6ec 87bf
000005c0: d67d 1700 733d a73f fecc 659c 5054 abbf
000005d0: 0845 0958 24d1 763f 0992 e951 5fa8 91bf
000005e0: a009 3aa4 3c05 b03f 2fef e3a6 950d a9bf
000005f0: 2d1b ae63 5a50 b0bf fe5c adf0 1dd3 70bf
00000600: fa8d 9fed 1d53 b33f 08db 49ba f210 a2bf
00000610: b756 322f 3b76 a23f 8860 d29d bd60 833f
00000620: 8b0b 9d75 df2c 803f bdb3 d18f 78d6 a1bf
00000630: a4f7 5ba6 67dd 79bf 7f6f 0376 eb95 8bbf
00000640: 77ea 988c 2aaf 6a3f c7c1 96bf 17c9 983f
00000650: 9330 672f c9dc ac3f 93cb 8e60 1bf5 603f
00000660: 18b7 542d d1c5 84bf 0548 5600 e397 86bf
00000670: 09b7 aaed bb9c 913f 4242 1889 352d 923f
00000680: 8b93 a22f 7293 df3f 6b1c 3c07 3721 a0bf
00000690: 9c39 1587 83d5 8abf 32f2 09cf e67b 683f
000006a0: bf8b e227 5cf1 28bf bad9 35d3 8eed aa3f
000006b0: 2d2c 7419 b858 67bf e423 fdaf 7e3d 6cbf
000006c0: 5ffc 7931 0d1c 403f 809d ddc4 a248 66bf
000006d0: 9d59 1da4 19ed 5abf b1a4 d04a b694 74bf
000006e0: 8b78 9979 bcf1 2c3f cf5f 07de e13e 6c3f
000006f0: 3cf1 847d 3393 94bf 6262 d716 d28e b43f
00000700: f028 e074 d0a5 85bf ae53 0fc6 c255 8dbf
00000710: f4b7 8d5e 2328 adbf d149 1d9c f000 97bf
00000720: b4e1 8801 d069 7a3f c845 977e acff 963f
00000730: 524e 707b faf5 743f f498 bbf6 11ab 55bf
00000740: ece4 8ddb 9baf b13f b968 7732 989e a3bf
00000750: 088d 6568 b208 b63f 95ff 3fad 73fd 93bf
00000760: 963b 6432 ba6a 7dbf 363d a1d4 ec01 c0bf
00000770: 176e 3e21 6696 b43f 4429 025d aef9 a53f
00000780: 2319 ef8a 61e8 8abf 3bfe ad8c 7133 b23f
00000790: dc68 bb9b b0ab e73f 0a26 1f31 90f7 a63f
000007a0: 8c8b e68b 22f5 b23f 1c3c 5e04 56a9 ba3f
000007b0: f370 9904 0ea5 8a3f ae5d 0a38 6684 b03f
000007c0: fcc8 3d60 2835 c73f 7fe6 aefc 7013 be3f
000007d0: a4dd 8d8e 7886 ab3f 453d 3c13 d0e0 9e3f
000007e0: c852 1958 fc19 b6bf 64f1 5fae 7687 ad3f
000007f0: 267a 1d76 25ce a4bf 7ac5 367f a996 b8bf
0.03481590908432916 -0.042131159177546444 0.46579153156022246 -0.017186633974931035 0.010409687246781672 0.0735753391370696 -0.042497390004921684 0.031032144325135284
0.06471030442105818 -0.03668991907262026 -0.03294846485927943 0.007156039887285521 -0.0026691775931474817 0.009907614139362328 0.03888678329621658 -0.010933993023202377
0.04718024262816927 -0.0011995553925319865 -0.004823374196245284 0.019329081208116633 -0.04181465004889059 -0.005563443159298731 0.02183094682090483 0.03236972622455841
0.0633680183584497 -0.006938626562168541 -0.03017267099518283 0.033561525624651686 -0.03884399478270948 0.04311598368197822 -0.013175999576491512 -0.04978516495150804
0.0008754425487307036 0.0021057228347372775 0.016039761813446168 -0.08903442334905254 -0.021130086585301407 -0.011185089857540485 -0.04726483441428455 -0.010983914697796821
-0.04883001244039273 -0.014751042138088928 -0.006615431522249608 0.011136910628344305 0.05009697210538523 0.2629333196202331 0.09919863215565015 -0.024816233678139336
0.1408105240096141 -0.03354483572075499 -0.009641698830139904 0.06332509443148741 0.018669358262977574 0.03956654966614575 0.01921051762172824 -0.035749861605802076
0.037935728622714486 0.10811209421049295 0.5337078239447144 -0.21167680451343715 -0.17432074753887922 0.18934125476471175 0.03151936282328636 -0.13271181643092295
-0.23052191880175849 0.2092301941751689 0.15752430083168764 0.050832480588313134 0.04552915257210004 0.17444784401408653 0.040358476060135325 0.04188074652415145
0.028928504863615544 0.11035598129669935 -0.05506892306071229 -0.09381950917437186 -0.15219559781540157 -0.11976207186284762 -0.19049174556966378 -0.15259837185754382
0.09118895089761002 0.03409796134437479 0.7600416311993924 0.08215642852398145 0.05769759585484463 0.006000312673162314 0.0003532953988900683 -0.07384945607905259
0.06619830707965993 0.00893399455665123 -0.0038726941810403497 0.03650265986367441 -0.009346084021497319 0.1563946130704296 -0.1618494036004179 0.007506958414072647
-0.09088950232797696 0.0031468491122135156 -0.0412684581501974 0.035472234014487077 -0.1679889320170687 -0.7171684439980052 -0.27159788830345016 -0.2249774058271616
-0.004675985238865033 -0.31390028266439873 0.09858906366479571 -0.274095656201702 0.10778026655214343 0.0022770137714898274 -0.0186685390611891 -0.05605079411443012
-0.08605296013578267 0.022391439778291652 -0.013150814341518364 0.5211057675064814 -0.02543685045346669 0.0068218045705356585 -0.009236616836343844 -0.004953411100978141
-0.2581234966418737 -5.1243374387231365e-06 -0.03406911497560304 -0.003904796694133258 0.0318889739158841 -0.012738978702036266 -0.0037445359244747283 0.0017594738762567084
-0.012850356750093437 -0.057991363204962204 -0.00518382480856071 -0.0030348992170940513 0.018779334478346007 0.0013031736646585725 -0.025672772087687725 0.049986036185070686
0.013816377715390075 -0.029492259756529013 -0.0020716603095463928 0.014430219237071112 0.025413965833836902 -0.01626758589442587 0.011525902787860367 0.009084934532787756
0.03209512688172239 -0.08690427067541984 0.006084543673859646 -0.07470259902068424 0.015528548297541347 -0.014812969573923914 0.0288479855667842 -0.06953675171172834
0.13930307133665235 0.06571358545882855 0.053747768555773054 0.14572611243702094 -0.00912921876561178 -0.8555809016009376 0.0698015902156115 -0.05900550956289613
0.03437653660679851 -0.07243616416836825 -0.021438703201108727 -0.0788812740607151 0.07556854565648648 -0.36885467549117024 0.06521321871807875 -0.07636983416568388
-0.03405051263916475 0.07806892088015517 -0.05893366036555351 -0.08838295835583194 -0.08224819954284454 0.09565650306391639 0.007476725826548651 0.015964501655324072
-0.020490208756107936 0.5219054617761393 0.033093209891207016 -0.04155920668731973 0.004849372788341231 0.05291693201420936 0.00041211317379359554 -0.011682084712795426
0.045390695344163554 -0.05337764653349984 0.00557054707367511 -0.01724385201886672 0.06257990846100947 -0.048931767103537964 -0.06372609075161213 -0.004107586816494589
0.07548701335286259 -0.035285554161353316 0.036058282386119904 0.009461861971701305 0.007898088242318987 -0.03483940845112652 -0.006314663774672189 -0.013469543017371908
0.0032573538817620112 0.024204608029039478 0.056371962582120315 0.00207000109772921 -0.010142931171312194 -0.01103188843515924 0.01719945562461248 0.01775058411846176
0.49337439205037786 -0.03150340998950515 -0.013102557716277378 0.002988768385249218 -0.00019029855679261566 0.05259367302180658 -0.0028499217693300966 -0.0034472917904264534
0.0004916252537013991 -0.0027201823312911766 -0.0016434431458570494 -0.005024635390364172 0.00022082734794798652 0.00344795336443935 -0.02009277776345296 0.08030427034044288
-0.010570171896706587 -0.01432373206072576 -0.056946854870019964 -0.022464522865741025 0.006448566935937473 0.022459693171020395 0.005117395826363573 -0.0013225245883688426
0.06908582792484069 -0.03831935516400748 0.08607020424601697 -0.0195215296262173 -0.0071818612398279105 -0.12505874998394412 0.08041990577333312 0.042920540669984436
-0.013138544132641322 0.07109746632158302 0.7397082368509262 0.044857507702158086 0.07405296245137388 0.10414636236804181 0.013010129466401987 0.0645202528779609
0.18130974482807705 0.11748415154479551 0.05376030674136281 0.030154467748670716 -0.086334010609174 0.05767413023565629 -0.04063527170977847 -0.09604892116364808

encoder.0.bias f8 [14]
00000000: 5540 f6a7 caed e5bf 8bbf d446 e06c efbf
00000010: 227d 0dde 5af1 f4bf 22cc 4495 43ad ef3f
00000020: d576 15b4 4077 f23f b6d7 cb30 a348 f23f
00000030: 0825 3386 c272 f4bf 4909 c302 198c f1bf
00000040: 478e 4e45 53bf f2bf 2d87 669a 2ac9 f0bf
00000050: 994d 8871 2b89 ee3f 50af eebf 88ce f2bf
00000060: 1f60 0dc5 6762 e93f 0022 7917 438e f4bf
-0.685277298021911 -0.9820405372065449 -1.3089245485242107 0.9899003901867938 1.1541144403958488 1.142733755693809 -1.2780175440005355 -1.096703539646642
-1.1717102725314292 -1.0491128951329742 0.9542443482809403 -1.1754233834607994 0.7932623718907087 -1.2847319523735905

encoder.2.weight f8 [7, 14]
00000000: 34d8 798c 6330 a1bf a249 dcb5 9c40 893f
00000010: 91fd 0186 68fd d5bf f0f7 ce7c 03b4 d63f
00000020: 9014 fd00 a731 cd3f 6884 54a4 291b c73f
00000030: 5639 e854 e204 9b3f a249 0b57 007f a43f
00000040: 8371 4a89 b4b0 b7bf 3d3b 0864 86cd 9ebf
00000050: 882a f0ec d66a d1bf 7dd8 47e6 9778 f53f
00000060: 76ce 67c4 5a32 93bf 6710 8f10 5c1a c83f
00000070: aee1 2677 7136 b7bf 3f80 690e accc c03f
00000080: dabf 45d5 dff3 713f 4a9a f936 a444 b0bf
00000090: f047 f5f4 c980 ed3f 057a 0eda 40a6 d43f
000000a0: b230 a203 0ffe ce3f def9 bb5b 62fc 90bf
000000b0: 90a2 ef4b 6ab8 c1bf b15f 74c3 623b c4bf
000000c0: df4d a744 9b2e e0bf 7875 2e0d cdac e8bf
000000d0: caf5 18d8 a42b 9bbf 2fd3 27d8 b3e7 e93f
000000e0: 0398 063a c206 d93f 35ab 9fd6 7ca7 e6bf
000000f0: 7919 fcbf e1d2 c7bf 420c f187 0cfd b3bf
00000100: 4dc9 1c0f 740a e53f ab95 e0c4 0052 c4bf
00000110: f784 59ce 72fa d53f 3f66 4818 778c d73f
00000120: 4d02 b352 7bc9 d4bf f3b2 f7f9 1c29 ccbf
00000130: c9ee 9967 4541 cd3f 8730 2f5d d2d5 c33f
00000140: e83f d769 9eab c7bf d3e0 2bde bff1 d73f
00000150: 86ad 6dca 7457 b5bf 43ba 3cde cc6a d53f
00000160: 9b72 35a1 d61a ee3f 3e7c 71dc 43c7 313f
00000170: 84ae f16f a953 d93f fbf5 b3e6 4940 ae3f
00000180: 3ab5 9892 bd23 ad3f 1463 3148 76b4 cb3f
00000190: b52a d3e6 f132 d1bf 4280 6fda c18a a3bf
000001a0: ea37 0da8 fd5d c7bf 4d1f 487e 646e c5bf
000001b0: 1be5 1434 61e6 ee3f f994 c4be 632b ba3f
000001c0: 55a2 acc9 e412 ce3f 0c9d 4801 3789 d1bf
000001d0: 6cad d39b c8c4 95bf 7062 ab4d 219a b7bf
000001e0: 7696 8b98 4634 e4bf 1fc9 068b 72b7 d63f
000001f0: 68c8 5763 d677 99bf 471c 8bb2 2185 cd3f
00000200: 2f87 593a 7033 d6bf 1d3f c077 81ac b83f
00000210: 45c3 80f3 690e e2bf 2135 5005 6c5b e7bf
00000220: 61dc 0fe8 82ab bcbf 32d5 2221 2951 e6bf
00000230: dfa6 40ec c874 c4bf ffc7 c28f f132 c73f
00000240: 7fea c59b 72fa b3bf 65ba 084a 9c7a 673f
00000250: aedb 6167 4a2d b6bf 566e 499e 284f c03f
00000260: 27d6 0aaf 717d e73f 2b1b b7b3 3994 8abf
00000270: d628 9710 9598 aebf 60ce 6551 59ab e2bf
00000280: 2052 a4d5 14df c8bf 3e1e 25a3 4df9 d5bf
00000290: 45e2 3ead 9222 bebf b573 0670 d70e d3bf
000002a0: e4aa b494 44a9 d3bf 8a4d a1be 4c02 d13f
000002b0: cbb6 31b2 cb3f cabf b53c 7c51 dec2 adbf
000002c0: 6fe1 8e12 ef8b af3f 8ae9 b00c 926a bcbf
000002d0: 5add a583 f67d c2bf 8633 7c33 4645 e63f
000002e0: 17a7 f1ee 7a24 e1bf 56e1 1d79 3abe 6e3f
000002f0: 142a a591 8e34 d13f 0fda a558 b4af 95bf
00000300: 4450 d6d4 7388 d6bf 649f b77a 11f5 adbf
-0.03357230272096992 0.012330269145910237 -0.34359181486794294 0.3547371596176836 0.2280777697398304 0.1805164387124336 0.026385818893737444 0.04003144323873477
-0.09254005767656363 -0.030080890517690795 -0.27214596880427466 1.341941737684038 -0.018746774900093098 0.1883044319967013 -0.09067448767644379 0.1312460966464659
0.004382967327146015 -0.06354738561786025 0.9219713005388694 0.32264729780754947 0.2421282546750994 -0.016587769364372444 -0.13844040592018247 -0.1580623106353847
-0.5056892720116898 -0.7710938699198513 -0.026533675851387696 0.8095339986599351 0.3910375181825431 -0.7079452697629224 -0.18612310289627113 -0.07807997053991847
0.6575260443844769 -0.1587525330843794 0.3434111609586376 0.36794831630104236 -0.3247974689111615 -0.22000467496345485 0.22855441626221865 0.1549628214837677
-0.184924890213096 0.374130217518098 -0.08336572591877286 0.33464357092717395 0.9407761715516075 0.0002712765385179428 0.39573131496465686 0.05908423367689505
0.05691330351360553 0.21644476437611415 -0.26873443166247607 -0.03816800872277827 -0.18255587297102177 -0.16743141332721692 0.9656225220889242 0.10222457320613278
0.23495159003620594 -0.2739999306235894 -0.021258482466618586 -0.09219558855273546 -0.6313813189887714 0.3549467427902914 -0.024871206105622795 0.23062535493792977
-0.3468895501920199 0.09638222859961983 -0.5642595058362551 -0.7299099067473983 -0.11199205556464299 -0.6974073073567182 -0.15981399093407497 0.18124217528890083
-0.07804027846388271 0.0028660824321129924 -0.08662858032208362 0.12741573075151064 0.7340629977031242 -0.012978030011152683 -0.059757860446170305 -0.5834166135595744
-0.194307903592418 -0.34334126407745547 -0.1177150414431561 -0.29778085651360736 -0.30720629236263464 0.2657653676626174 -0.20507188988579225 -0.058127353140770145
0.061614485755344776 -0.1110011368736307 -0.14446908405418918 0.69595632606216 -0.5357031504511011 0.0037528173497173673 0.2688328192058702 -0.02117807189048376
-0.3520783976066506 -0.058510347585808004

encoder.2.bias f8 [7]
00000000: ac6a 6956 1c1c f53f 1424 711a 2d4b e93f
00000010: ab87 6f0a c681 e73f b725 1248 7565 ef3f
00000020: 5dea bb6d b5a2 df3f fc81 ec28 9c10 f13f
00000030: eeaa 2bbc 14fd e83f
1.3193629622898397 0.7904267803616016 0.7345915035077629 0.9811350257524997 0.49430595127311056 1.066555175646612 0.7808936763006764

decoder.0.weight f8 [7, 7]
00000000: a60d b04c 287d dc3f 009a 1ab1 8422 e73f
00000010: 69af 4df3 4ff4 f0bf 2042 750a d0b9 c4bf
00000020: 49c1 f56d 2d2d cabf f26b 55a4 817e c63f
00000030: bf72 c725 d90a a93f f037 d06e 45b8 e7bf
00000040: 99a3 3e6c f389 ddbf 4a92 57a4 0ca6 e6bf
00000050: 69e1 a132 c67b d5bf 6ba8 9c8c afe7 d63f
00000060: e337 0a9a 4a9c c23f 9687 e979 985d d53f
00000070: d17a 2ef6 fc68 e9bf c868 54cb e0a4 ee3f
00000080: f2c4 7737 e68f ba3f ea42 bb2c d6e3 b53f
00000090: f9a7 ddef 156d bf3f c1eb 0cc3 8ce3 d9bf
000000a0: 38b6 f0bb 660a e43f 4d4f acb8 1116 a03f
000000b0: 20d9 7fa1 a3b5 d63f 494b b9a9 b48a b23f
000000c0: 7bf1 34f7 a356 b5bf 089e d75a 502f e83f
000000d0: df68 b363 dbcd ecbf 3b15 80b0 887b e4bf
000000e0: 152e b56b 3e70 e23f 136a f691 869a b13f
000000f0: b8fa af20 d044 d13f c9e1 187e d278 f9bf
00000100: 4eb1 2e07 2f6e d13f bd35 cd72 71e3 b23f
00000110: 81c7 e1b0 2a9b de3f 718b c6c8 80d0 e7bf
00000120: 44f2 359e 2f9c c73f f351 f53b 0f8b c93f
00000130: 1353 3d73 b9dc c9bf 521a 1600 b5aa df3f
00000140: 30dd 67b8 cd8f ea3f 7327 8099 a1c8 debf
00000150: 38e2 be9c 1806 e63f eb88 90e4 cb5a e8bf
00000160: 0a4d e636 0810 c8bf 0e41 4abb c94d d33f
00000170: 6fe9 ee73 f509 ed3f bde4 8aa5 54d6 cf3f
00000180: 8100 cc66 8139 d13f
0.44513900269540796 0.7229636630116261 -1.059646559147007 -0.16192055235525604 -0.20450370663776088 0.17573566936593427 0.04891089044733609 -0.7412440456698715
-0.4615448529316893 -0.707769700031869 -0.3356795782524587 0.3578909753001713 0.145394635405352 0.3338376226948808 -0.7940659340127586 0.9576267215045613
0.1037582288188508 0.08550776092603099 0.1227582655534717 -0.4045135407247323 0.6262696905811884 0.03141837481794472 0.3548363759176869 0.07242898124358733
-0.083353278973794 0.7557756208670421 -0.9001290271073933 -0.6400798270484879 0.5762016395250976 0.06876412452258078 0.26982501213198473 -1.5919976163551033
0.27235007954984247 0.07378300717137783 0.47822062753322575 -0.7442020341298826 0.18445391869672012 0.1995562594189689 -0.20204847456866357 0.49479413040572695
0.8300541497873493 -0.48099555959981116 0.6882441579283016 -0.7610835518028386 -0.18798926048894088 0.3016228035931058 0.9074656738587644 0.2487283523858305
0.26913485564001155

decoder.0.bias f8 [7]
00000000: ebf2 e795 05ab cabf 22ca 7ff2 bbf7 f63f
00000010: a21f a500 7baa f2bf 544e c661 d1b9 e53f
00000020: f694 699f aa71 bb3f 52a0 3cf8 a014 e7bf
00000030: f6d6 898b ef11 f4bf
-0.20834417171126715 1.4354819748520034 -1.166621210593782 0.6789328488980098 0.10720316306977282 -0.7212681625724235 -1.254378838607804

decoder.2.weight f8 [29, 7]
00000000: 25b3 1ba7 3171 d73f 27e6 8c71 72e0 aa3f
00000010: 656a a81d 4e38 ed3f 1cb8 5c16 f3db a73f
00000020: c72b a48e 9afb 11c0 1912 b7e1 0360 debf
00000030: 1f90 c037 c861 e5bf 0297 8d4d ac9f e83f
00000040: dddf 5635 0ecd b73f 734d 54e9 487d f43f
00000050: fdd1 c441 1cc6 d73f 42a3 02e5 dc63 1140
00000060: 1dfa 4269 8735 a1bf 3d8b a55b 4837 f0bf
00000070: ffd3 2298 c03b febf 2b7d 2229 53bb f0bf
00000080: 6c43 831d a488 f0bf fd5c 7886 b4f4 fa3f
00000090: bc3d 9b91 4fa7 d83f 3fdf 9536 24b7 eb3f
000000a0: 0231 7294 7427 e4bf 2372 1b22 5c92 a7bf
000000b0: 27d9 e20a 5a16 fcbf 20cd b176 10ad e7bf
000000c0: 3f2e 1719 ce98 00c0 71e1 de7d 9cce d0bf
000000d0: 8aab 1389 3ada 0740 befa 1fa5 f577 e43f
000000e0: 20df fabd 9dec e8bf 7653 4a19 6152 0740
000000f0: 432d 4e2b aa61 fcbf 3778 2595 2e47 e6bf
00000100: 6eca d202 2939 e1bf 7e81 3d29 9c07 f53f
00000110: 353f 0700 f18c 0340 e9e3 e855 e88a f2bf
00000120: 9f65 ba14 900f f8bf 8775 a376 a538 0240
00000130: 9a38 25d8 7e91 f1bf 3f58 a733 87fb db3f
00000140: cdfb b9f5 e6a9 e7bf 53fe 2f92 6e51 0740
00000150: 04aa e536 338a e53f 876d 9a81 eb77 01c0
00000160: 955f 6c35 1d32 09c0 4008 57f1 f95d f4bf
00000170: 3a4a 0f8a 054d 0340 1962 5840 a0d6 ffbf
00000180: 3947 6cc8 a3d4 f53f 6c9b f533 d72a ef3f
00000190: 6c0f 10b8 3940 af3f 59d4 2636 e025 f33f
000001a0: 3ff9 8b7e de5e f23f 7fa2 5c6f f5bf e13f
000001b0: 41e6 e6f8 cb4c fd3f 7b61 e8c9 8d88 e93f
000001c0: 0318 7e18 567e ddbf 3698 905b 1b25 ecbf
000001d0: 8f5b 005d 7b91 e73f 4eb8 c2e5 10ed 0840
000001e0: 97ce 698c 344e dabf 3689 1f54 ec01 01c0
000001f0: 8990 7ba7 d1f6 c23f 967d 272b 3ff9 e63f
00000200: f1f8 3f40 603d 03c0 e797 c3b3 02a6 f03f
00000210: a9a7 1033 0536 ce3f 3380 8ef6 70a8 d73f
00000220: 199f ce69 28cb e8bf 8da7 e046 f864 04c0
00000230: 9ffe ad51 a466 ed3f 8ae0 251c aa8a d63f
00000240: ec7a b1e5 613b fabf e979 9ccc 4dc7 ee3f
00000250: b0c3 35aa 06e0 d1bf 1b2c 0ad5 8be5 e03f
00000260: 953b 8fd3 8cc9 f8bf a430 27ac 77e1 f13f
00000270: 96ef 5a64 f5cd c5bf 20fe 8498 fef8 c8bf
00000280: d089 b82c 0cbb f23f 4d43 95a0 6803 c2bf
00000290: f350 f7d6 e068 f03f 1ca4 4080 86cf e53f
000002a0: fa6b 83a7 d585 febf 1336 b0fa a28b e33f
000002b0: 9cb1 94bc 995a f5bf 142d ee2a 9602 f0bf
000002c0: cd36 d706 eb6f e2bf a7cc 4007 459c eabf
000002d0: 2762 3fe8 d2a5 e5bf 8eb7 05da 40d0 d53f
000002e0: 5367 23f7 71e7 fe3f f106 023c 39fc d33f
000002f0: 96c6 63a4 1457 f63f 34dd a6a3 70d5 9a3f
00000300: d8b0 1ba9 d238 e2bf 02d2 c8f5 ca1a d0bf
00000310: ae8e aad9 a3b8 ebbf 98ad 5954 241d f53f
00000320: 7c85 fe58 e79e e43f 7ff8 810e 88ad d93f
00000330: 676d b2f4 b124 983f 03f3 ad0f c149 f43f
00000340: 5bc5 16d8 3570 e5bf 6bc1 4fb0 5e88 dc3f
00000350: b67b 89b1 2b06 d73f 65bb 3a74 7423 f13f
00000360: 6f11 1bf7 f4b4 cebf 922c 2131 77de e0bf
00000370: 4d25 030b 2c20 f33f 090e c21a 7063 e9bf
00000380: 13dc 0555 c255 f23f bc26 bcd6 92ad f53f
00000390: 1207 0ae6 4d56 e13f d3ca 72e8 f6c8 f2bf
000003a0: 926c 2dc8 5c0b b53f dde7 c688 7a44 c13f
000003b0: 81d8 d55c 37b2 e8bf 80b7 3247 3c25 eb3f
000003c0: e16c d049 48e9 e13f 9e2f bdfa 4213 c7bf
000003d0: 04ff 919e 1343 e6bf 0142 39b1 25e9 c03f
000003e0: 50b9 eb07 a6ea ce3f 624e b6b2 4791 d1bf
000003f0: 16a3 5692 d1f8 edbf 199c 140b 2388 ec3f
00000400: c893 170e 8d27 ce3f 87ce 4199 99af c4bf
00000410: 4a14 7c02 7a32 db3f be62 e7bd 0895 f03f
00000420: 9fe8 4a53 207a e5bf f796 3b01 ef58 0840
00000430: e7c4 8bb5 5916 f0bf 3f27 2889 232e b93f
00000440: abf8 deb5 4b9f e3bf 0e94 4a1a ef10 c1bf
00000450: b59e 4bf4 8abe f5bf dda0 4459 fb04 e73f
00000460: c237 454b 9fc4 03c0 5b8d 6426 62b7 c43f
00000470: 0649 8a8b c3fa 0040 8d59 d40f 8748 edbf
00000480: 33c4 b129 c37e f33f 5fd5 4cb0 9e4d fbbf
00000490: 2c68 caf1 e254 fbbf 6ece f552 6616 df3f
000004a0: d24b a177 40de e33f faff 5884 78bd d3bf
000004b0: db9b 4613 63ea b8bf e1f1 d570 b19a e03f
000004c0: 1689 7684 1884 ddbf 73e0 e362 32c9 d13f
000004d0: 62b3 6339 ae85 d4bf 04a8 e1a6 ca0d cf3f
000004e0: 3021 f282 2098 e4bf 0a1e 978d fee6 cebf
000004f0: e98e a78b 5756 e3bf 04c7 6667 d6cb cd3f
00000500: d110 76de 6e28 da3f 5362 da67 ebae c3bf
00000510: acb1 7f9a 8a99 cdbf 87da eec8 30f9 d1bf
00000520: 8a29 7224 0291 c43f 4aa9 c03b 37f8 a1bf
00000530: faf4 42b6 5f32 c33f 9af7 c003 a5ef d1bf
00000540: a62f 3ad8 3259 dabf 20df 088c 2c5b cc3f
00000550: 0b0d 600b 3c53 e0bf adc5 3892 b599 c0bf
00000560: 0025 b591 216e e0bf 5bdc c1ee 1096 d63f
00000570: 7ce5 2a6d ac20 c63f 006c 0b91 133f cabf
00000580: 1a2b d9ee d3b0 82bf b48d 0759 b6a2 b73f
00000590: 7661 5d7e da71 c7bf 832a 4625 950f ac3f
000005a0: 9cfd cd19 1755 ce3f 7050 c896 11b8 aebf
000005b0: 779c efe4 a11d d43f 5041 2ce7 ac22 d2bf
000005c0: fa6d a211 a705 d03f 4f5f 5095 6aa0 b33f
000005d0: 0331 906d fa4d cc3f 950b 40b2 e965 c8bf
000005e0: 694a bb66 fda0 adbf 2b71 4a55 add2 c83f
000005f0: 7596 57f9 dd53 a0bf 5354 1a37 2bb5 a93f
00000600: 8441 f726 2ca8 b1bf 6177 873e 98a8 a5bf
00000610: 807b 7ab5 22f5 bebf 8be9 d245 fb1d b03f
00000620: 3d74 86ef dfc6 ea3f f0ce 7993 4a3d 07c0
00000630: 893a 86ee 16ae 04c0 549a 5180 031d febf
00000640: cd07 75da 57f4 e7bf 9656 dd75 233a 03c0
00000650: 7122 b1ff 9ccd 0540
0.36628381079826716 0.052493645058757026 0.913123186040434 0.04659995696998484 -4.495706776399806 -0.4746103004693239 -0.6681862915907039 0.7694913401325894
0.09297264864187534 1.2805871118951841 0.37146669790971015 4.347522333417887 -0.033611518477744996 -1.0134967403361792 -1.889587969094691 -1.045733605082044
-1.0333596375314427 1.6847424748173687 0.38521184176803636 0.8661061349984961 -0.6298163318001857 -0.046038512385824036 -1.755456964992456 -0.7398760145428334
-2.07461185075752 -0.2626105527119967 2.9815569600227194 0.6396434998603906 -0.7788838110491021 2.9152242637450696 -1.7738439265838941 -0.6961892045035317
-0.5382275633949811 1.3143579112002892 2.4438190462314204 -1.1589129787300811 -1.5037995156948012 2.27765934645021 -1.09802135879321 0.43722705883317653
-0.739490013060157 2.91476167878117 0.6731201240739328 -2.1835546612980496 -3.1494697736452033 -1.2729434420912327 2.4126082216182825 -1.9898989213453488
1.3644140080472893 0.9739795698959433 0.06103687641009867 1.1967470279025945 1.148161405871704 0.5546824622188778 1.8312492106182534 0.7979191726217744
-0.4608359564957711 -0.8795296467185441 0.7365090195115601 3.115754885678178 -0.4110232707236973 -2.1259390422939317 0.14815731695046377 0.7179256289345399
-2.404968740417751 1.0405299207718544 0.23602356904421853 0.36965583875462754 -0.7747995440049379 -2.5493016755398856 0.9187795253091798 0.35221340893577546
-1.639497658957846 0.9618290897668064 -0.27929846403190606 0.5280207787449201 -1.5492065681498606 1.1175457691888733 -0.17034785652310508 -0.19509870955697384
1.1706659075649561 -0.14072902527780187 1.0256050488579234 0.6815826897556039 -1.907674459790313 0.6107954880005216 -1.3346192709387656 -1.0006314923255717
-0.576161874161437 -0.8315758840239099 -0.6764921699605723 0.34083577433818213 1.931505170234648 0.31226950512073787 1.396259920260865 0.026204833973421063
-0.5694363882917299 -0.25163530352008945 -0.8662890673917525 1.3196147246297638 0.6443974245232051 0.40121652046935447 0.023577480850332757 1.2680063831787158
-0.6699475498664172 0.44582335679935764 0.3597516282806582 1.071155981084041 -0.23989736619672494 -0.5271564445078118 1.1953545026938912 -0.7933884165399273
1.1459372826773275 1.354876364525281 0.5417851918175265 -1.1740635948196327 0.08220462691444855 0.13490230253756766 -0.7717549145879873 0.848295344408811
0.5597268525774802 -0.18027531855693452 -0.6956880662037013 0.13211508897303761 0.24153590571172368 -0.2744921918140105 -0.9366233690426238 0.8916182724395895
0.2355820006188465 -0.161608886559055 0.42495584719319324 1.036385289966503 -0.6711579920586422 3.0434246155081115 -1.005456647075613 0.09836027239375954
-0.6131952812354674 -0.13332928451305331 -1.359019235876912 0.7193581336514644 -2.471006954240665 0.16184641718528323 2.122443285138732 -0.9151034650010829
1.218447840565443 -1.706450165436159 -1.708224243635878 0.48574216939525783 0.6208803497814819 -0.3084393780191018 -0.09732646198845833 0.5188834384749123
-0.4611874860367079 0.2779050794338282 -0.3206592140621095 0.2426083865023544 -0.6435701901946569 -0.24142438806141825 -0.6042897918345861 0.23278312729740247
0.4087178394768332 -0.15377562113714535 -0.23124821227919534 -0.2808343851315062 0.1606753042181704 -0.03509686092759752 0.14997478866090558 -0.28025174490528004
-0.4116942512125611 0.22153241002683277 -0.5101604673549515 -0.12969083442434962 -0.5134437414027673 0.35290931049479973 0.1728721173329112 -0.2050499399400394
-0.009126334883281784 0.0923265426022713 -0.1831620327964278 0.054806385803279255 0.23697174797051168 -0.05999808278662122 0.3143086181357328 -0.2833664186046194
0.25034500810735916 0.07666650910721028 0.22112970685737574 -0.1906101341592971 -0.05786888007209685 0.19392935432996103 -0.03188985508658685 0.05021033332483484
-0.06897235823931253 -0.042301900513605835 -0.12092797213197848 0.06295748190578913 0.836776702711752 -2.9049273988292654 -2.585004676314672 -1.882083417172585
-0.748577047990915 -2.4033879478618685 2.7253971076900645

decoder.2.bias f8 [29]
00000000: 8bef 17e7 7c7d 04c0 7d1d 365c 42c8 f9bf
00000010: 771d 57c1 7887 e8bf a062 cd18 8b3d bcbf
00000020: 4ee8 15e5 2d5b e5bf c7c2 c9a3 05d7 e63f
00000030: 9549 b015 de27 f1bf 20ba 44c8 cb32 e2bf
00000040: 60ad a5ec f443 e3bf 8903 2420 f35c ae3f
00000050: 5c58 6f16 c4b5 e5bf cb40 5501 997c d3bf
00000060: 932d 0a38 2659 debf c079 524f d4af e5bf
00000070: 73e9 327c 5eae e6bf 47f7 012d 02ac ebbf
00000080: 45a5 9831 a67b cabf 6220 0e62 23bc cdbf
00000090: e97f 25fb f447 eebf cccc 779b 38d8 e1bf
000000a0: 5f15 a655 6f3c 03c0 2722 c282 2a0f e2bf
000000b0: 71fc 15ad 78e3 e5bf 6307 f89c 74e6 cabf
000000c0: 676e 0e3c 0780 d9bf 8ed3 a766 8149 cfbf
000000d0: 0b82 a9d5 2268 dabf 83cd ea8a 2e9a b6bf
000000e0: 9902 5f60 18d4 c93f
-2.5612733892612076 -1.61139141101907 -0.7665370727708439 -0.11031407695316853 -0.6673802828147559 0.7137478064524537 -1.0722332808696582 -0.5687006865972002
-0.6020454999938174 0.05930290000288269 -0.6784382284338437 -0.3044798386590741 -0.4741912410033475 -0.6777135419140947 -0.7087852884063025 -0.8647471312576521
-0.2068984739465042 -0.23230402267313638 -0.9462838082508799 -0.5576441799625171 -2.4045092288312584 -0.5643513254045204 -0.6840175037940651 -0.21015794434066057
-0.3984392248619088 -0.24443070900420277 -0.4126059614700643 -0.08829012767346538 0.20178513246175525
